#loc = loc(unknown)
module attributes {llvm.data_layout = "e-m:o-i64:64-i128:128-n32:64-S128", llvm.target_triple = "arm64-apple-darwin23.1.0", "onnx-mlir.symbol-postfix" = "mnist"} {
  func.func @main_graph(%arg0: tensor<1x1x28x28xf32> loc(unknown)) -> tensor<1x10xf32> attributes {input_names = ["input.1"], output_names = ["19"]} {
    %0 = onnx.Constant dense<[-1, 320]> : tensor<2xi64> loc(#loc1)
    %1 = onnx.Constant dense<1.0> : tensor<10x1x5x5xf32> loc(#loc2)
    %2 = onnx.Constant dense<[0.143770665, 0.0425382107, -0.0444311202, 0.0654672608, -0.0245875381, -0.00526585756, 0.103917263, -0.379304767, 0.0496097282, 0.166007519]> : tensor<10xf32> loc(#loc3)
    %3 = onnx.Constant dense<"…"> : tensor<20x10x5x5xf32> loc(#loc4)
    %4 = onnx.Constant dense<[… > : tensor<20xf32> loc(#loc5)
    %5 = onnx.Constant dense<"…"> : tensor<50x320xf32> loc(#loc6)
    %6 = onnx.Constant dense<[… > : tensor<50xf32> loc(#loc7)
    %7 = onnx.Constant dense<"…"> : tensor<10x50xf32> loc(#loc8)
    %8 = onnx.Constant dense<[-0.163638473, -0.020303987, 0.12145301, 0.13117446, -0.127144501, 0.023728665, -0.129713759, -0.138007909, 0.166811451, -0.118656866]> : tensor<10xf32> loc(#loc9)
    %9 = "onnx.Conv"(%arg0, %1, %2) {auto_pad = "NOTSET", dilations = [1, 1], group = 1 : si64, kernel_shape = [5, 5], onnx_node_name = "/conv1/Conv", pads = [0, 0, 0, 0], strides = [1, 1]} : (tensor<1x1x28x28xf32>, tensor<10x1x5x5xf32>, tensor<10xf32>) -> tensor<1x10x24x24xf32> loc(#loc10)
    %10 = "onnx.Relu"(%9) {onnx_node_name = "/Relu"} : (tensor<1x10x24x24xf32>) -> tensor<1x10x24x24xf32> loc(#loc11)
    %11 = "onnx.MaxPoolSingleOut"(%10) {auto_pad = "NOTSET", ceil_mode = 0 : si64, kernel_shape = [2, 2], onnx_node_name = "/pool1/MaxPool", pads = [0, 0, 0, 0], storage_order = 0 : si64, strides = [2, 2]} : (tensor<1x10x24x24xf32>) -> tensor<1x10x12x12xf32> loc(#loc12)
    %12 = "onnx.Conv"(%11, %3, %4) {auto_pad = "NOTSET", dilations = [1, 1], group = 1 : si64, kernel_shape = [5, 5], onnx_node_name = "/conv2/Conv", pads = [0, 0, 0, 0], strides = [1, 1]} : (tensor<1x10x12x12xf32>, tensor<20x10x5x5xf32>, tensor<20xf32>) -> tensor<1x20x8x8xf32> loc(#loc13)
    %13 = "onnx.Relu"(%12) {onnx_node_name = "/Relu_1"} : (tensor<1x20x8x8xf32>) -> tensor<1x20x8x8xf32> loc(#loc14)
    %14 = "onnx.MaxPoolSingleOut"(%13) {auto_pad = "NOTSET", ceil_mode = 0 : si64, kernel_shape = [2, 2], onnx_node_name = "/pool2/MaxPool", pads = [0, 0, 0, 0], storage_order = 0 : si64, strides = [2, 2]} : (tensor<1x20x8x8xf32>) -> tensor<1x20x4x4xf32> loc(#loc15)
    %15 = "onnx.Reshape"(%14, %0) {allowzero = 0 : si64, onnx_node_name = "/Reshape"} : (tensor<1x20x4x4xf32>, tensor<2xi64>) -> tensor<1x320xf32> loc(#loc16)
    %16 = "onnx.Gemm"(%15, %5, %6) {alpha = 1.000000e+00 : f32, beta = 1.000000e+00 : f32, onnx_node_name = "/fc1/Gemm", transA = 0 : si64, transB = 1 : si64} : (tensor<1x320xf32>, tensor<50x320xf32>, tensor<50xf32>) -> tensor<1x50xf32> loc(#loc17)
    %17 = "onnx.Relu"(%16) {onnx_node_name = "/Relu_2"} : (tensor<1x50xf32>) -> tensor<1x50xf32> loc(#loc18)
    %18 = "onnx.Gemm"(%17, %7, %8) {alpha = 1.000000e+00 : f32, beta = 1.000000e+00 : f32, onnx_node_name = "/fc2/Gemm", transA = 0 : si64, transB = 1 : si64} : (tensor<1x50xf32>, tensor<10x50xf32>, tensor<10xf32>) -> tensor<1x10xf32> loc(#loc19)
    return %18 : tensor<1x10xf32> loc(#loc)
  } loc(#loc)
  "onnx.EntryPoint"() {func = @main_graph} : () -> () loc(#loc)
} loc(#loc)
#loc1 = loc("/Constant")
#loc2 = loc("Initializer_conv1.weight")
#loc3 = loc("Initializer_conv1.bias")
#loc4 = loc("Initializer_conv2.weight")
#loc5 = loc("Initializer_conv2.bias")
#loc6 = loc("Initializer_fc1.weight")
#loc7 = loc("Initializer_fc1.bias")
#loc8 = loc("Initializer_fc2.weight")
#loc9 = loc("Initializer_fc2.bias")
#loc10 = loc("/conv1/Conv")
#loc11 = loc("/Relu")
#loc12 = loc("/pool1/MaxPool")
#loc13 = loc("/conv2/Conv")
#loc14 = loc("/Relu_1")
#loc15 = loc("/pool2/MaxPool")
#loc16 = loc("/Reshape")
#loc17 = loc("/fc1/Gemm")
#loc18 = loc("/Relu_2")
#loc19 = loc("/fc2/Gemm")
